…
lse, gen_layers=3, gru_units=50, linear_classif=True, seq_len=48)
['run_exp.py', '--model-type', 'COPER', '--dataset', 'mimic', '--cont-in', '--self-per-cross-attn', '1', '--latent-heads', '2', '--cross-heads', '1', '--cross-dim-head', '128', '--latent-dim-head', '128', '--latent-dim', '64', '--units', '128', '--ode-dropout', '0.5', '--att-dropout', '0.5', '--ff-dropout', '0.5', '--num-latents', '48', '--batch-size', '64', '--patience', '10', '--niters', '1', '--results-dir', '/home/charlesv/Desktop/StatisitcalGenetics/code/COPER/results', '--random-seed', '1', '--drop', '0.5']
COPER(
  (embed): Linear(in_features=76, out_features=32, bias=True)
  (ode_in): ODE(
    (ode_cell): ODECell(
      (diffeq_solver): DiffeqSolver(
        (ode_func): ODEFunc(
          (gradient_net): ODEFuncNet(
            (net): PlainNet(
              (net): Sequential(
                (0): Linear(in_features=32, out_features=128, bias=True)
                (1): Tanh()
                (2): Dropout(p=0.5, inplace=False)
                (3): Linear(in_features=128, out_features=128, bias=True)
                (4): Tanh()
                (5): Dropout(p=0.5, inplace=False)
                (6): Linear(in_features=128, out_features=128, bias=True)
                (7): Tanh()
                (8): Dropout(p=0.5, inplace=False)
                (9): Linear(in_features=128, out_features=128, bias=True)
                (10): Tanh()
                (11): Linear(in_features=128, out_features=32, bias=True)
              )
            )
          )
        )
      )
    )
  )
  (net): Perceiver(
    (pos_encoder): PositionalEncoding()
    (cross_attn): Transformer(
      (mha): MultiheadAttention(
        (w_q): Linear(in_features=64, out_features=128, bias=True)
        (w_k): Linear(in_features=32, out_features=128, bias=True)
        (w_v): Linear(in_features=32, out_features=128, bias=True)
        (dropout): Dropout(p=0.5, inplace=False)
        (to_out): Linear(in_features=128, out_features=64, bias=True)
      )
      (norm1): LayerNorm((64,), eps=1e-05, elementwise_affine=True)
      (mlp): Sequential(
        (0): Linear(in_features=64, out_features=256, bias=True)
        (1): ReLU()
        (2): Dropout(p=0.5, inplace=False)
        (3): Linear(in_features=256, out_features=64, bias=True)
      )
      (norm2): LayerNorm((64,), eps=1e-05, elementwise_affine=True)
    )
    (self_attns): ModuleList(
      (0): Transformer(
        (mha): MultiheadAttention(
          (w_q): Linear(in_features=64, out_features=256, bias=True)
          (w_k): Linear(in_features=64, out_features=256, bias=True)
          (w_v): Linear(in_features=64, out_features=256, bias=True)
          (dropout): Dropout(p=0.5, inplace=False)
          (to_out): Linear(in_features=256, out_features=64, bias=True)
        )
        (norm1): LayerNorm((64,), eps=1e-05, elementwise_affine=True)
        (mlp): Sequential(
          (0): Linear(in_features=64, out_features=256, bias=True)
          (1): ReLU()
          (2): Dropout(p=0.5, inplace=False)
          (3): Linear(in_features=256, out_features=64, bias=True)
        )
        (norm2): LayerNorm((64,), eps=1e-05, elementwise_affine=True)
      )
    )
  )
  (norm): LayerNorm((64,), eps=1e-06, elementwise_affine=True)
  (classifier): Sequential(
    (0): Linear(in_features=64, out_features=1, bias=True)
  )
  (act): Sigmoid()
)
Train Loss:0.378573
Val Epoch: 0001 | Val Loss 0.333007
Number of labeled examples: 3222
Number of examples with mortality 1: 436
Best Threshold=0.116414, G-Mean=0.718
Val AUROC = 0.7834
Val AUPRC = 0.3883
Val Accuracy = 0.7126
Val Precision = 0.2816
Val Recall = 0.7248
Val F1-score = 0.6081


Validation auc increased (inf --> 0.783422).  Saving model ...
…
Test-G Epoch: -001 | Test-G Loss 0.305935
Number of labeled examples: 3236
Number of examples with mortality 1: 374
Best Threshold=0.115717, G-Mean=0.713
Test-G AUROC = 0.7765
Test-G AUPRC = 0.3304
Test-G Accuracy = 0.7067
Test-G Precision = 0.2422
Test-G Recall = 0.7219
Test-G F1-score = 0.5861


...........Experiment ended............."
coper_2node,2-NODE (ODE → Perceiver → ODE on latents),True,/home/charlesv/Desktop/StatisitcalGenetics/code/COPER,1,0.5,0,353.68840885162354,/home/charlesv/Desktop/StatisitcalGenetics/code/COPER/results/checkpoints/COPER-mimic-F-1_D0.5_S1_N2.ckpt,True,0.7611,0.3098,0.7678,0.3195,"                (9): Linear(in_features=128, out_features=128, bias=True)
                (10): Tanh()
                (11): Linear(in_features=128, out_features=32, bias=True)
              )
            )
          )
        )
      )
    )
  )
  (net): Perceiver(
    (pos_encoder): PositionalEncoding()
    (cross_attn): Transformer(
      (mha): MultiheadAttention(
        (w_q): Linear(in_features=64, out_features=128, bias=True)
        (w_k): Linear(in_features=32, out_features=128, bias=True)
        (w_v): Linear(in_features=32, out_features=128, bias=True)
        (dropout): Dropout(p=0.5, inplace=False)
        (to_out): Linear(in_features=128, out_features=64, bias=True)
      )
      (norm1): LayerNorm((64,), eps=1e-05, elementwise_affine=True)
      (mlp): Sequential(
        (0): Linear(in_features=64, out_features=256, bias=True)
        (1): ReLU()
        (2): Dropout(p=0.5, inplace=False)
        (3): Linear(in_features=256, out_features=64, bias=True)
      )
      (norm2): LayerNorm((64,), eps=1e-05, elementwise_affine=True)
    )
    (self_attns): ModuleList(
      (0): Transformer(
        (mha): MultiheadAttention(
          (w_q): Linear(in_features=64, out_features=256, bias=True)
          (w_k): Linear(in_features=64, out_features=256, bias=True)
          (w_v): Linear(in_features=64, out_features=256, bias=True)
          (dropout): Dropout(p=0.5, inplace=False)
          (to_out): Linear(in_features=256, out_features=64, bias=True)
        )
        (norm1): LayerNorm((64,), eps=1e-05, elementwise_affine=True)
        (mlp): Sequential(
          (0): Linear(in_features=64, out_features=256, bias=True)
          (1): ReLU()
          (2): Dropout(p=0.5, inplace=False)
          (3): Linear(in_features=256, out_features=64, bias=True)
        )
        (norm2): LayerNorm((64,), eps=1e-05, elementwise_affine=True)
      )
    )
  )
  (ode_out): ODE(
    (ode_cell): ODECell(
      (diffeq_solver): DiffeqSolver(
        (ode_func): ODEFunc(
          (gradient_net): ODEFuncNet(
            (net): PlainNet(
              (net): Sequential(
                (0): Linear(in_features=64, out_features=128, bias=True)
                (1): Tanh()
                (2): Dropout(p=0.5, inplace=False)
                (3): Linear(in_features=128, out_features=128, bias=True)
                (4): Tanh()
                (5): Dropout(p=0.5, inplace=False)
                (6): Linear(in_features=128, out_features=128, bias=True)
                (7): Tanh()
                (8): Dropout(p=0.5, inplace=False)
                (9): Linear(in_features=128, out_features=128, bias=True)
                (10): Tanh()
                (11): Linear(in_features=128, out_features=64, bias=True)
              )
            )
          )
        )
      )
    )
  )
  (norm): LayerNorm((64,), eps=1e-06, elementwise_affine=True)
  (classifier): Sequential(
    (0): Linear(in_features=64, out_features=1, bias=True)
  )
  (act): Sigmoid()
)
Train Loss:0.387607
Val Epoch: 0001 | Val Loss 0.340012
Number of labeled examples: 3222
Number of examples with mortality 1: 436
Best Threshold=0.128451, G-Mean=0.714
Val AUROC = 0.7745
Val AUPRC = 0.3696
Val Accuracy = 0.7294
Val Precision = 0.2904
Val Recall = 0.6927
Val F1-score = 0.6168


Validation auc increased (inf --> 0.774494).  Saving model ...
…
