…
en_layers=3, gru_units=50, linear_classif=True, seq_len=48)
['utils/run_exp.py', '--dataset', 'mimic', '--cont-in', '--self-per-cross-attn', '1', '--latent-heads', '2', '--cross-heads', '1', '--cross-dim-head', '128', '--latent-dim-head', '128', '--latent-dim', '64', '--units', '128', '--ode-dropout', '0.5', '--att-dropout', '0.5', '--ff-dropout', '0.5', '--num-latents', '48', '--batch-size', '64', '--patience', '10', '--results-dir', '/home/charlesv/Desktop/StatisitcalGenetics/code/COPER/results', '--niters', '1', '--model-type', 'COPER', '--random-seed', '1', '--drop', '0.5']
COPER(
  (embed): Linear(in_features=76, out_features=32, bias=True)
  (ode_in): ODE(
    (ode_cell): ODECell(
      (diffeq_solver): DiffeqSolver(
        (ode_func): ODEFunc(
          (gradient_net): ODEFuncNet(
            (net): PlainNet(
              (net): Sequential(
                (0): Linear(in_features=32, out_features=128, bias=True)
                (1): Tanh()
                (2): Dropout(p=0.5, inplace=False)
                (3): Linear(in_features=128, out_features=128, bias=True)
                (4): Tanh()
                (5): Dropout(p=0.5, inplace=False)
                (6): Linear(in_features=128, out_features=128, bias=True)
                (7): Tanh()
                (8): Dropout(p=0.5, inplace=False)
                (9): Linear(in_features=128, out_features=128, bias=True)
                (10): Tanh()
                (11): Linear(in_features=128, out_features=32, bias=True)
              )
            )
          )
        )
      )
    )
  )
  (net): Perceiver(
    (pos_encoder): PositionalEncoding()
    (cross_attn): Transformer(
      (mha): MultiheadAttention(
        (w_q): Linear(in_features=64, out_features=128, bias=True)
        (w_k): Linear(in_features=32, out_features=128, bias=True)
        (w_v): Linear(in_features=32, out_features=128, bias=True)
        (dropout): Dropout(p=0.5, inplace=False)
        (to_out): Linear(in_features=128, out_features=64, bias=True)
      )
      (norm1): LayerNorm((64,), eps=1e-05, elementwise_affine=True)
      (mlp): Sequential(
        (0): Linear(in_features=64, out_features=256, bias=True)
        (1): ReLU()
        (2): Dropout(p=0.5, inplace=False)
        (3): Linear(in_features=256, out_features=64, bias=True)
      )
      (norm2): LayerNorm((64,), eps=1e-05, elementwise_affine=True)
    )
    (self_attns): ModuleList(
      (0): Transformer(
        (mha): MultiheadAttention(
          (w_q): Linear(in_features=64, out_features=256, bias=True)
          (w_k): Linear(in_features=64, out_features=256, bias=True)
          (w_v): Linear(in_features=64, out_features=256, bias=True)
          (dropout): Dropout(p=0.5, inplace=False)
          (to_out): Linear(in_features=256, out_features=64, bias=True)
        )
        (norm1): LayerNorm((64,), eps=1e-05, elementwise_affine=True)
        (mlp): Sequential(
          (0): Linear(in_features=64, out_features=256, bias=True)
          (1): ReLU()
          (2): Dropout(p=0.5, inplace=False)
          (3): Linear(in_features=256, out_features=64, bias=True)
        )
        (norm2): LayerNorm((64,), eps=1e-05, elementwise_affine=True)
      )
    )
  )
  (norm): LayerNorm((64,), eps=1e-06, elementwise_affine=True)
  (classifier): Sequential(
    (0): Linear(in_features=64, out_features=1, bias=True)
  )
  (act): Sigmoid()
)
Train Loss:0.378573
Val Epoch: 0001 | Val Loss 0.333007
Number of labeled examples: 3222
Number of examples with mortality 1: 436
Best Threshold=0.116414, G-Mean=0.718
Val AUROC = 0.7834
Val AUPRC = 0.3883
Val Accuracy = 0.7126
Val Precision = 0.2816
Val Recall = 0.7248
Val F1-score = 0.6081


Validation auc increased (inf --> 0.783422).  Saving model ...
…
Number of labeled examples: 3236
Number of examples with mortality 1: 374
Best Threshold=0.115717, G-Mean=0.713
Test-G AUROC = 0.7765
Test-G AUPRC = 0.3304
Test-G Accuracy = 0.7067
Test-G Precision = 0.2422
Test-G Recall = 0.7219
Test-G F1-score = 0.5861


...........Experiment ended............."
coper_2node,2-NODE (ODE → Perceiver → ODE on latents),COPER,1,True,/home/charlesv/Desktop/StatisitcalGenetics/code/COPER,1,0.5,0,333.513334274292,/home/charlesv/Desktop/StatisitcalGenetics/code/COPER/results/checkpoints/COPER-mimic-F-1_D0.5_S1_N2.ckpt,True,0.7611,0.3098,0.7678,0.3195,"                (9): Linear(in_features=128, out_features=128, bias=True)
                (10): Tanh()
                (11): Linear(in_features=128, out_features=32, bias=True)
              )
            )
          )
        )
      )
    )
  )
  (net): Perceiver(
    (pos_encoder): PositionalEncoding()
    (cross_attn): Transformer(
      (mha): MultiheadAttention(
        (w_q): Linear(in_features=64, out_features=128, bias=True)
        (w_k): Linear(in_features=32, out_features=128, bias=True)
        (w_v): Linear(in_features=32, out_features=128, bias=True)
        (dropout): Dropout(p=0.5, inplace=False)
        (to_out): Linear(in_features=128, out_features=64, bias=True)
      )
      (norm1): LayerNorm((64,), eps=1e-05, elementwise_affine=True)
      (mlp): Sequential(
        (0): Linear(in_features=64, out_features=256, bias=True)
        (1): ReLU()
        (2): Dropout(p=0.5, inplace=False)
        (3): Linear(in_features=256, out_features=64, bias=True)
      )
      (norm2): LayerNorm((64,), eps=1e-05, elementwise_affine=True)
    )
    (self_attns): ModuleList(
      (0): Transformer(
        (mha): MultiheadAttention(
          (w_q): Linear(in_features=64, out_features=256, bias=True)
          (w_k): Linear(in_features=64, out_features=256, bias=True)
          (w_v): Linear(in_features=64, out_features=256, bias=True)
          (dropout): Dropout(p=0.5, inplace=False)
          (to_out): Linear(in_features=256, out_features=64, bias=True)
        )
        (norm1): LayerNorm((64,), eps=1e-05, elementwise_affine=True)
        (mlp): Sequential(
          (0): Linear(in_features=64, out_features=256, bias=True)
          (1): ReLU()
          (2): Dropout(p=0.5, inplace=False)
          (3): Linear(in_features=256, out_features=64, bias=True)
        )
        (norm2): LayerNorm((64,), eps=1e-05, elementwise_affine=True)
      )
    )
  )
  (ode_out): ODE(
    (ode_cell): ODECell(
      (diffeq_solver): DiffeqSolver(
        (ode_func): ODEFunc(
          (gradient_net): ODEFuncNet(
            (net): PlainNet(
              (net): Sequential(
                (0): Linear(in_features=64, out_features=128, bias=True)
                (1): Tanh()
                (2): Dropout(p=0.5, inplace=False)
                (3): Linear(in_features=128, out_features=128, bias=True)
                (4): Tanh()
                (5): Dropout(p=0.5, inplace=False)
                (6): Linear(in_features=128, out_features=128, bias=True)
                (7): Tanh()
                (8): Dropout(p=0.5, inplace=False)
                (9): Linear(in_features=128, out_features=128, bias=True)
                (10): Tanh()
                (11): Linear(in_features=128, out_features=64, bias=True)
              )
            )
          )
        )
      )
    )
  )
  (norm): LayerNorm((64,), eps=1e-06, elementwise_affine=True)
  (classifier): Sequential(
    (0): Linear(in_features=64, out_features=1, bias=True)
  )
  (act): Sigmoid()
)
Train Loss:0.387607
Val Epoch: 0001 | Val Loss 0.340012
Number of labeled examples: 3222
Number of examples with mortality 1: 436
Best Threshold=0.128451, G-Mean=0.714
Val AUROC = 0.7745
Val AUPRC = 0.3696
Val Accuracy = 0.7294
Val Precision = 0.2904
Val Recall = 0.6927
Val F1-score = 0.6168


Validation auc increased (inf --> 0.774494).  Saving model ...
…
 gru_units=50, linear_classif=True, seq_len=48)
['utils/run_exp.py', '--dataset', 'mimic', '--cont-in', '--self-per-cross-attn', '1', '--latent-heads', '2', '--cross-heads', '1', '--cross-dim-head', '128', '--latent-dim-head', '128', '--latent-dim', '64', '--units', '128', '--ode-dropout', '0.5', '--att-dropout', '0.5', '--ff-dropout', '0.5', '--num-latents', '48', '--batch-size', '64', '--patience', '10', '--results-dir', '/home/charlesv/Desktop/StatisitcalGenetics/code/COPER/results', '--niters', '1', '--model-type', 'TRANSFORMER', '--random-seed', '1', '--drop', '0.5']
TRANSFORMER(
  (embed): Linear(in_features=76, out_features=32, bias=True)
  (ode_in): ODE(
    (ode_cell): ODECell(
      (diffeq_solver): DiffeqSolver(
        (ode_func): ODEFunc(
          (gradient_net): ODEFuncNet(
            (net): PlainNet(
              (net): Sequential(
                (0): Linear(in_features=32, out_features=128, bias=True)
                (1): Tanh()
                (2): Dropout(p=0.5, inplace=False)
                (3): Linear(in_features=128, out_features=128, bias=True)
                (4): Tanh()
                (5): Dropout(p=0.5, inplace=False)
                (6): Linear(in_features=128, out_features=128, bias=True)
                (7): Tanh()
                (8): Dropout(p=0.5, inplace=False)
                (9): Linear(in_features=128, out_features=128, bias=True)
                (10): Tanh()
                (11): Linear(in_features=128, out_features=32, bias=True)
              )
            )
          )
        )
      )
    )
  )
  (net): Transformer_Multiple(
    (pos_encoder): PositionalEncoding()
    (cross_attn): Transformer(
      (mha): MultiheadAttention(
        (w_q): Linear(in_features=32, out_features=128, bias=True)
        (w_k): Linear(in_features=32, out_features=128, bias=True)
        (w_v): Linear(in_features=32, out_features=128, bias=True)
        (dropout): Dropout(p=0.5, inplace=False)
        (to_out): Linear(in_features=128, out_features=32, bias=True)
      )
      (norm1): LayerNorm((32,), eps=1e-05, elementwise_affine=True)
      (mlp): Sequential(
        (0): Linear(in_features=32, out_features=128, bias=True)
        (1): ReLU()
        (2): Dropout(p=0.5, inplace=False)
        (3): Linear(in_features=128, out_features=32, bias=True)
      )
      (norm2): LayerNorm((32,), eps=1e-05, elementwise_affine=True)
    )
    (self_attns): ModuleList(
      (0): Transformer(
        (mha): MultiheadAttention(
          (w_q): Linear(in_features=32, out_features=256, bias=True)
          (w_k): Linear(in_features=32, out_features=256, bias=True)
          (w_v): Linear(in_features=32, out_features=256, bias=True)
          (dropout): Dropout(p=0.5, inplace=False)
          (to_out): Linear(in_features=256, out_features=32, bias=True)
        )
        (norm1): LayerNorm((32,), eps=1e-05, elementwise_affine=True)
        (mlp): Sequential(
          (0): Linear(in_features=32, out_features=128, bias=True)
          (1): ReLU()
          (2): Dropout(p=0.5, inplace=False)
          (3): Linear(in_features=128, out_features=32, bias=True)
        )
        (norm2): LayerNorm((32,), eps=1e-05, elementwise_affine=True)
      )
    )
  )
  (norm): LayerNorm((32,), eps=1e-06, elementwise_affine=True)
  (classifier): Sequential(
    (0): Linear(in_features=32, out_features=1, bias=True)
  )
  (act): Sigmoid()
)
Train Loss:0.372197
Val Epoch: 0001 | Val Loss 0.324872
Number of labeled examples: 3222
Number of examples with mortality 1: 436
Best Threshold=0.131392, G-Mean=0.732
Val AUROC = 0.7936
Val AUPRC = 0.4274
Val Accuracy = 0.7439
Val Precision = 0.3080
Val Recall = 0.7156
Val F1-score = 0.6327


Validation auc increased (inf --> 0.793591).  Saving model ...
…
Number of examples with mortality 1: 374
Best Threshold=0.134300, G-Mean=0.740
Test-G AUROC = 0.8007
Test-G AUPRC = 0.3638
Test-G Accuracy = 0.7413
Test-G Precision = 0.2719
Test-G Recall = 0.7380
Test-G F1-score = 0.6164


...........Experiment ended............."
transformer_2node,TRANSFORMER 2-NODE (ODE → T×T self-attention → ODE on sequence),TRANSFORMER,1,True,/home/charlesv/Desktop/StatisitcalGenetics/code/COPER,1,0.5,0,332.1071689128876,/home/charlesv/Desktop/StatisitcalGenetics/code/COPER/results/checkpoints/TRANSFORMER-mimic-F-1_D0.5_S1_N2.ckpt,True,0.7749,0.3514,0.7755,0.3518,"                (9): Linear(in_features=128, out_features=128, bias=True)
                (10): Tanh()
                (11): Linear(in_features=128, out_features=32, bias=True)
              )
            )
          )
        )
      )
    )
  )
  (net): Transformer_Multiple(
    (pos_encoder): PositionalEncoding()
    (cross_attn): Transformer(
      (mha): MultiheadAttention(
        (w_q): Linear(in_features=32, out_features=128, bias=True)
        (w_k): Linear(in_features=32, out_features=128, bias=True)
        (w_v): Linear(in_features=32, out_features=128, bias=True)
        (dropout): Dropout(p=0.5, inplace=False)
        (to_out): Linear(in_features=128, out_features=32, bias=True)
      )
      (norm1): LayerNorm((32,), eps=1e-05, elementwise_affine=True)
      (mlp): Sequential(
        (0): Linear(in_features=32, out_features=128, bias=True)
        (1): ReLU()
        (2): Dropout(p=0.5, inplace=False)
        (3): Linear(in_features=128, out_features=32, bias=True)
      )
      (norm2): LayerNorm((32,), eps=1e-05, elementwise_affine=True)
    )
    (self_attns): ModuleList(
      (0): Transformer(
        (mha): MultiheadAttention(
          (w_q): Linear(in_features=32, out_features=256, bias=True)
          (w_k): Linear(in_features=32, out_features=256, bias=True)
          (w_v): Linear(in_features=32, out_features=256, bias=True)
          (dropout): Dropout(p=0.5, inplace=False)
          (to_out): Linear(in_features=256, out_features=32, bias=True)
        )
        (norm1): LayerNorm((32,), eps=1e-05, elementwise_affine=True)
        (mlp): Sequential(
          (0): Linear(in_features=32, out_features=128, bias=True)
          (1): ReLU()
          (2): Dropout(p=0.5, inplace=False)
          (3): Linear(in_features=128, out_features=32, bias=True)
        )
        (norm2): LayerNorm((32,), eps=1e-05, elementwise_affine=True)
      )
    )
  )
  (ode_out): ODE(
    (ode_cell): ODECell(
      (diffeq_solver): DiffeqSolver(
        (ode_func): ODEFunc(
          (gradient_net): ODEFuncNet(
            (net): PlainNet(
              (net): Sequential(
                (0): Linear(in_features=32, out_features=128, bias=True)
                (1): Tanh()
                (2): Dropout(p=0.5, inplace=False)
                (3): Linear(in_features=128, out_features=128, bias=True)
                (4): Tanh()
                (5): Dropout(p=0.5, inplace=False)
                (6): Linear(in_features=128, out_features=128, bias=True)
                (7): Tanh()
                (8): Dropout(p=0.5, inplace=False)
                (9): Linear(in_features=128, out_features=128, bias=True)
                (10): Tanh()
                (11): Linear(in_features=128, out_features=32, bias=True)
              )
            )
          )
        )
      )
    )
  )
  (norm): LayerNorm((32,), eps=1e-06, elementwise_affine=True)
  (classifier): Sequential(
    (0): Linear(in_features=32, out_features=1, bias=True)
  )
  (act): Sigmoid()
)
Train Loss:0.407905
Val Epoch: 0001 | Val Loss 0.353247
Number of labeled examples: 3222
Number of examples with mortality 1: 436
Best Threshold=0.141290, G-Mean=0.701
Val AUROC = 0.7678
Val AUPRC = 0.3926
Val Accuracy = 0.7039
Val Precision = 0.2700
Val Recall = 0.6972
Val F1-score = 0.5969


Validation auc increased (inf --> 0.767802).  Saving model ...
…
Test-G Epoch: -001 | Test-G Loss 0.323679
Number of labeled examples: 3236
Number of examples with mortality 1: 374
Best Threshold=0.147053, G-Mean=0.714
Test-G AUROC = 0.7755
Test-G AUPRC = 0.3518
Test-G Accuracy = 0.7259
Test-G Precision = 0.2522
Test-G Recall = 0.6979
Test-G F1-score = 0.5976


...........Experiment ended............."
coper_1node,1-NODE (ODE → Perceiver),COPER,3,False,/home/charlesv/Desktop/StatisitcalGenetics/code/COPER,1,0.5,0,433.1864311695099,/home/charlesv/Desktop/StatisitcalGenetics/code/COPER/results/checkpoints/COPER-mimic-F-1_D0.5_S1.ckpt,True,0.8088,0.3813,0.8049,0.3743,"                (11): Linear(in_features=128, out_features=32, bias=True)
              )
            )
          )
        )
      )
    )
  )
  (net): Perceiver(
    (pos_encoder): PositionalEncoding()
    (cross_attn): Transformer(
      (mha): MultiheadAttention(
        (w_q): Linear(in_features=64, out_features=128, bias=True)
        (w_k): Linear(in_features=32, out_features=128, bias=True)
        (w_v): Linear(in_features=32, out_features=128, bias=True)
        (dropout): Dropout(p=0.5, inplace=False)
        (to_out): Linear(in_features=128, out_features=64, bias=True)
      )
      (norm1): LayerNorm((64,), eps=1e-05, elementwise_affine=True)
      (mlp): Sequential(
        (0): Linear(in_features=64, out_features=256, bias=True)
        (1): ReLU()
        (2): Dropout(p=0.5, inplace=False)
        (3): Linear(in_features=256, out_features=64, bias=True)
      )
      (norm2): LayerNorm((64,), eps=1e-05, elementwise_affine=True)
    )
    (self_attns): ModuleList(
      (0): Transformer(
        (mha): MultiheadAttention(
          (w_q): Linear(in_features=64, out_features=256, bias=True)
          (w_k): Linear(in_features=64, out_features=256, bias=True)
          (w_v): Linear(in_features=64, out_features=256, bias=True)
          (dropout): Dropout(p=0.5, inplace=False)
          (to_out): Linear(in_features=256, out_features=64, bias=True)
        )
        (norm1): LayerNorm((64,), eps=1e-05, elementwise_affine=True)
        (mlp): Sequential(
          (0): Linear(in_features=64, out_features=256, bias=True)
          (1): ReLU()
          (2): Dropout(p=0.5, inplace=False)
          (3): Linear(in_features=256, out_features=64, bias=True)
        )
        (norm2): LayerNorm((64,), eps=1e-05, elementwise_affine=True)
      )
    )
  )
  (norm): LayerNorm((64,), eps=1e-06, elementwise_affine=True)
  (classifier): Sequential(
    (0): Linear(in_features=64, out_features=1, bias=True)
  )
  (act): Sigmoid()
)
Train Loss:0.378573
Val Epoch: 0001 | Val Loss 0.333007
Number of labeled examples: 3222
Number of examples with mortality 1: 436
Best Threshold=0.116414, G-Mean=0.718
Val AUROC = 0.7834
Val AUPRC = 0.3883
Val Accuracy = 0.7126
Val Precision = 0.2816
Val Recall = 0.7248
Val F1-score = 0.6081


Validation auc increased (inf --> 0.783422).  Saving model ...
…
Best Threshold=0.098306, G-Mean=0.736
Test-G AUROC = 0.8049
Test-G AUPRC = 0.3743
Test-G Accuracy = 0.7284
Test-G Precision = 0.2625
Test-G Recall = 0.7460
Test-G F1-score = 0.6069


...........Experiment ended............."
coper_2node,2-NODE (ODE → Perceiver → ODE on latents),COPER,3,True,/home/charlesv/Desktop/StatisitcalGenetics/code/COPER,1,0.5,0,828.970427274704,/home/charlesv/Desktop/StatisitcalGenetics/code/COPER/results/checkpoints/COPER-mimic-F-1_D0.5_S1_N2.ckpt,True,0.7923,0.358,0.8064,0.3806,"    )
    (self_attns): ModuleList(
      (0): Transformer(
        (mha): MultiheadAttention(
          (w_q): Linear(in_features=64, out_features=256, bias=True)
          (w_k): Linear(in_features=64, out_features=256, bias=True)
          (w_v): Linear(in_features=64, out_features=256, bias=True)
          (dropout): Dropout(p=0.5, inplace=False)
          (to_out): Linear(in_features=256, out_features=64, bias=True)
        )
        (norm1): LayerNorm((64,), eps=1e-05, elementwise_affine=True)
        (mlp): Sequential(
          (0): Linear(in_features=64, out_features=256, bias=True)
          (1): ReLU()
          (2): Dropout(p=0.5, inplace=False)
          (3): Linear(in_features=256, out_features=64, bias=True)
        )
        (norm2): LayerNorm((64,), eps=1e-05, elementwise_affine=True)
      )
    )
  )
  (ode_out): ODE(
    (ode_cell): ODECell(
      (diffeq_solver): DiffeqSolver(
        (ode_func): ODEFunc(
          (gradient_net): ODEFuncNet(
            (net): PlainNet(
              (net): Sequential(
                (0): Linear(in_features=64, out_features=128, bias=True)
                (1): Tanh()
                (2): Dropout(p=0.5, inplace=False)
                (3): Linear(in_features=128, out_features=128, bias=True)
                (4): Tanh()
                (5): Dropout(p=0.5, inplace=False)
                (6): Linear(in_features=128, out_features=128, bias=True)
                (7): Tanh()
                (8): Dropout(p=0.5, inplace=False)
                (9): Linear(in_features=128, out_features=128, bias=True)
                (10): Tanh()
                (11): Linear(in_features=128, out_features=64, bias=True)
              )
            )
          )
        )
      )
    )
  )
  (norm): LayerNorm((64,), eps=1e-06, elementwise_affine=True)
  (classifier): Sequential(
    (0): Linear(in_features=64, out_features=1, bias=True)
  )
  (act): Sigmoid()
)
Train Loss:0.387607
Val Epoch: 0001 | Val Loss 0.340012
Number of labeled examples: 3222
Number of examples with mortality 1: 436
Best Threshold=0.128451, G-Mean=0.714
Val AUROC = 0.7745
Val AUPRC = 0.3696
Val Accuracy = 0.7294
Val Precision = 0.2904
Val Recall = 0.6927
Val F1-score = 0.6168


Validation auc increased (inf --> 0.774494).  Saving model ...
…
Number of labeled examples: 3236
Number of examples with mortality 1: 374
Best Threshold=0.090011, G-Mean=0.732
Test-G AUROC = 0.8064
Test-G AUPRC = 0.3806
Test-G Accuracy = 0.7123
Test-G Precision = 0.2524
Test-G Recall = 0.7594
Test-G F1-score = 0.5959


...........Experiment ended............."
transformer_baseline,TRANSFORMER (ODE → T×T self-attention),TRANSFORMER,3,False,/home/charlesv/Desktop/StatisitcalGenetics/code/COPER,1,0.5,0,422.0627329349518,/home/charlesv/Desktop/StatisitcalGenetics/code/COPER/results/checkpoints/TRANSFORMER-mimic-F-1_D0.5_S1.ckpt,True,0.8251,0.4195,0.819,0.4032,"                (11): Linear(in_features=128, out_features=32, bias=True)
              )
            )
          )
        )
      )
    )
  )
  (net): Transformer_Multiple(
    (pos_encoder): PositionalEncoding()
    (cross_attn): Transformer(
      (mha): MultiheadAttention(
        (w_q): Linear(in_features=32, out_features=128, bias=True)
        (w_k): Linear(in_features=32, out_features=128, bias=True)
        (w_v): Linear(in_features=32, out_features=128, bias=True)
        (dropout): Dropout(p=0.5, inplace=False)
        (to_out): Linear(in_features=128, out_features=32, bias=True)
      )
      (norm1): LayerNorm((32,), eps=1e-05, elementwise_affine=True)
      (mlp): Sequential(
        (0): Linear(in_features=32, out_features=128, bias=True)
        (1): ReLU()
        (2): Dropout(p=0.5, inplace=False)
        (3): Linear(in_features=128, out_features=32, bias=True)
      )
      (norm2): LayerNorm((32,), eps=1e-05, elementwise_affine=True)
    )
    (self_attns): ModuleList(
      (0): Transformer(
        (mha): MultiheadAttention(
          (w_q): Linear(in_features=32, out_features=256, bias=True)
          (w_k): Linear(in_features=32, out_features=256, bias=True)
          (w_v): Linear(in_features=32, out_features=256, bias=True)
          (dropout): Dropout(p=0.5, inplace=False)
          (to_out): Linear(in_features=256, out_features=32, bias=True)
        )
        (norm1): LayerNorm((32,), eps=1e-05, elementwise_affine=True)
        (mlp): Sequential(
          (0): Linear(in_features=32, out_features=128, bias=True)
          (1): ReLU()
          (2): Dropout(p=0.5, inplace=False)
          (3): Linear(in_features=128, out_features=32, bias=True)
        )
        (norm2): LayerNorm((32,), eps=1e-05, elementwise_affine=True)
      )
    )
  )
  (norm): LayerNorm((32,), eps=1e-06, elementwise_affine=True)
  (classifier): Sequential(
    (0): Linear(in_features=32, out_features=1, bias=True)
  )
  (act): Sigmoid()
)
Train Loss:0.372197
Val Epoch: 0001 | Val Loss 0.324872
Number of labeled examples: 3222
Number of examples with mortality 1: 436
Best Threshold=0.131392, G-Mean=0.732
Val AUROC = 0.7936
Val AUPRC = 0.4274
Val Accuracy = 0.7439
Val Precision = 0.3080
Val Recall = 0.7156
Val F1-score = 0.6327


Validation auc increased (inf --> 0.793591).  Saving model ...
…
Test-G AUPRC = 0.4032
Test-G Accuracy = 0.7182
Test-G Precision = 0.2653
Test-G Recall = 0.8128
Test-G F1-score = 0.6079


...........Experiment ended............."
transformer_2node,TRANSFORMER 2-NODE (ODE → T×T self-attention → ODE on sequence),TRANSFORMER,3,True,/home/charlesv/Desktop/StatisitcalGenetics/code/COPER,1,0.5,0,848.9562726020813,/home/charlesv/Desktop/StatisitcalGenetics/code/COPER/results/checkpoints/TRANSFORMER-mimic-F-1_D0.5_S1_N2.ckpt,True,0.8133,0.4098,0.808,0.3989,"    )
    (self_attns): ModuleList(
      (0): Transformer(
        (mha): MultiheadAttention(
          (w_q): Linear(in_features=32, out_features=256, bias=True)
          (w_k): Linear(in_features=32, out_features=256, bias=True)
          (w_v): Linear(in_features=32, out_features=256, bias=True)
          (dropout): Dropout(p=0.5, inplace=False)
          (to_out): Linear(in_features=256, out_features=32, bias=True)
        )
        (norm1): LayerNorm((32,), eps=1e-05, elementwise_affine=True)
        (mlp): Sequential(
          (0): Linear(in_features=32, out_features=128, bias=True)
          (1): ReLU()
          (2): Dropout(p=0.5, inplace=False)
          (3): Linear(in_features=128, out_features=32, bias=True)
        )
        (norm2): LayerNorm((32,), eps=1e-05, elementwise_affine=True)
      )
    )
  )
  (ode_out): ODE(
    (ode_cell): ODECell(
      (diffeq_solver): DiffeqSolver(
        (ode_func): ODEFunc(
          (gradient_net): ODEFuncNet(
            (net): PlainNet(
              (net): Sequential(
                (0): Linear(in_features=32, out_features=128, bias=True)
                (1): Tanh()
                (2): Dropout(p=0.5, inplace=False)
                (3): Linear(in_features=128, out_features=128, bias=True)
                (4): Tanh()
                (5): Dropout(p=0.5, inplace=False)
                (6): Linear(in_features=128, out_features=128, bias=True)
                (7): Tanh()
                (8): Dropout(p=0.5, inplace=False)
                (9): Linear(in_features=128, out_features=128, bias=True)
                (10): Tanh()
                (11): Linear(in_features=128, out_features=32, bias=True)
              )
            )
          )
        )
      )
    )
  )
  (norm): LayerNorm((32,), eps=1e-06, elementwise_affine=True)
  (classifier): Sequential(
    (0): Linear(in_features=32, out_features=1, bias=True)
  )
  (act): Sigmoid()
)
Train Loss:0.407905
Val Epoch: 0001 | Val Loss 0.353247
Number of labeled examples: 3222
Number of examples with mortality 1: 436
Best Threshold=0.141290, G-Mean=0.701
Val AUROC = 0.7678
Val AUPRC = 0.3926
Val Accuracy = 0.7039
Val Precision = 0.2700
Val Recall = 0.6972
Val F1-score = 0.5969


Validation auc increased (inf --> 0.767802).  Saving model ...
…
