arch_id,architecture,second_node,repo_dir,seed,drop,return_code,runtime_sec,ckpt_path,ckpt_exists,test_og_auroc,test_og_auprc,test_g_auroc,test_g_auprc,raw_tail
coper_1node,1-NODE (ODE → Perceiver),False,/home/charlesv/Desktop/StatisitcalGenetics/code/COPER,1,0.5,0,440.87583661079407,/home/charlesv/Desktop/StatisitcalGenetics/code/COPER/results/checkpoints/COPER-mimic-F-1_D0.5_S1.ckpt,True,0.8088,0.3813,0.8049,0.3743,"                (11): Linear(in_features=128, out_features=32, bias=True)
              )
            )
          )
        )
      )
    )
  )
  (net): Perceiver(
    (pos_encoder): PositionalEncoding()
    (cross_attn): Transformer(
      (mha): MultiheadAttention(
        (w_q): Linear(in_features=64, out_features=128, bias=True)
        (w_k): Linear(in_features=32, out_features=128, bias=True)
        (w_v): Linear(in_features=32, out_features=128, bias=True)
        (dropout): Dropout(p=0.5, inplace=False)
        (to_out): Linear(in_features=128, out_features=64, bias=True)
      )
      (norm1): LayerNorm((64,), eps=1e-05, elementwise_affine=True)
      (mlp): Sequential(
        (0): Linear(in_features=64, out_features=256, bias=True)
        (1): ReLU()
        (2): Dropout(p=0.5, inplace=False)
        (3): Linear(in_features=256, out_features=64, bias=True)
      )
      (norm2): LayerNorm((64,), eps=1e-05, elementwise_affine=True)
    )
    (self_attns): ModuleList(
      (0): Transformer(
        (mha): MultiheadAttention(
          (w_q): Linear(in_features=64, out_features=256, bias=True)
          (w_k): Linear(in_features=64, out_features=256, bias=True)
          (w_v): Linear(in_features=64, out_features=256, bias=True)
          (dropout): Dropout(p=0.5, inplace=False)
          (to_out): Linear(in_features=256, out_features=64, bias=True)
        )
        (norm1): LayerNorm((64,), eps=1e-05, elementwise_affine=True)
        (mlp): Sequential(
          (0): Linear(in_features=64, out_features=256, bias=True)
          (1): ReLU()
          (2): Dropout(p=0.5, inplace=False)
          (3): Linear(in_features=256, out_features=64, bias=True)
        )
        (norm2): LayerNorm((64,), eps=1e-05, elementwise_affine=True)
      )
    )
  )
  (norm): LayerNorm((64,), eps=1e-06, elementwise_affine=True)
  (classifier): Sequential(
    (0): Linear(in_features=64, out_features=1, bias=True)
  )
  (act): Sigmoid()
)
Train Loss:0.378573
Val Epoch: 0001 | Val Loss 0.333007
Number of labeled examples: 3222
Number of examples with mortality 1: 436
Best Threshold=0.116414, G-Mean=0.718
Val AUROC = 0.7834
Val AUPRC = 0.3883
Val Accuracy = 0.7126
Val Precision = 0.2816
Val Recall = 0.7248
Val F1-score = 0.6081


Validation auc increased (inf --> 0.783422).  Saving model ...
…
Best Threshold=0.098306, G-Mean=0.736
Test-G AUROC = 0.8049
Test-G AUPRC = 0.3743
Test-G Accuracy = 0.7284
Test-G Precision = 0.2625
Test-G Recall = 0.7460
Test-G F1-score = 0.6069


...........Experiment ended............."
coper_2node,2-NODE (ODE → Perceiver → ODE on latents),True,/home/charlesv/Desktop/StatisitcalGenetics/code/COPER,1,0.5,0,878.2948911190033,/home/charlesv/Desktop/StatisitcalGenetics/code/COPER/results/checkpoints/COPER-mimic-F-1_D0.5_S1_N2.ckpt,True,0.7923,0.358,0.8064,0.3806,"    )
    (self_attns): ModuleList(
      (0): Transformer(
        (mha): MultiheadAttention(
          (w_q): Linear(in_features=64, out_features=256, bias=True)
          (w_k): Linear(in_features=64, out_features=256, bias=True)
          (w_v): Linear(in_features=64, out_features=256, bias=True)
          (dropout): Dropout(p=0.5, inplace=False)
          (to_out): Linear(in_features=256, out_features=64, bias=True)
        )
        (norm1): LayerNorm((64,), eps=1e-05, elementwise_affine=True)
        (mlp): Sequential(
          (0): Linear(in_features=64, out_features=256, bias=True)
          (1): ReLU()
          (2): Dropout(p=0.5, inplace=False)
          (3): Linear(in_features=256, out_features=64, bias=True)
        )
        (norm2): LayerNorm((64,), eps=1e-05, elementwise_affine=True)
      )
    )
  )
  (ode_out): ODE(
    (ode_cell): ODECell(
      (diffeq_solver): DiffeqSolver(
        (ode_func): ODEFunc(
          (gradient_net): ODEFuncNet(
            (net): PlainNet(
              (net): Sequential(
                (0): Linear(in_features=64, out_features=128, bias=True)
                (1): Tanh()
                (2): Dropout(p=0.5, inplace=False)
                (3): Linear(in_features=128, out_features=128, bias=True)
                (4): Tanh()
                (5): Dropout(p=0.5, inplace=False)
                (6): Linear(in_features=128, out_features=128, bias=True)
                (7): Tanh()
                (8): Dropout(p=0.5, inplace=False)
                (9): Linear(in_features=128, out_features=128, bias=True)
                (10): Tanh()
                (11): Linear(in_features=128, out_features=64, bias=True)
              )
            )
          )
        )
      )
    )
  )
  (norm): LayerNorm((64,), eps=1e-06, elementwise_affine=True)
  (classifier): Sequential(
    (0): Linear(in_features=64, out_features=1, bias=True)
  )
  (act): Sigmoid()
)
Train Loss:0.387607
Val Epoch: 0001 | Val Loss 0.340012
Number of labeled examples: 3222
Number of examples with mortality 1: 436
Best Threshold=0.128451, G-Mean=0.714
Val AUROC = 0.7745
Val AUPRC = 0.3696
Val Accuracy = 0.7294
Val Precision = 0.2904
Val Recall = 0.6927
Val F1-score = 0.6168


Validation auc increased (inf --> 0.774494).  Saving model ...
…
